flappy-bird/DQN/runs/cartpole1.pt (torch, 2272 bytes, 4 tensors)

fc1.weight f4 [10, 4]
0.16166075 -0.62507665 -0.7286332 0.3661157 0.76077265 -0.29072624 -1.316487 0.5016152
0.28524047 -0.29359993 -0.8512558 -0.4778858 0.9340811 -1.476693 -3.0159638 -2.1701303
-1.8502709 0.9535277 4.058068 2.0069728 1.0488117 0.30850372 -1.1371121 0.00515073
1.2571988 -0.4805185 -0.72996646 -0.47734353 0.54250866 -0.2813909 -1.2489321 -0.3686053
1.1379206 -0.3087624 -1.3918072 -0.040698655 0.4945012 -0.24571817 -1.4293623 -0.12103461
00000000: 658a 253e 0605 20bf b587 3abf 8473 bb3e
00000010: ffc1 423f 12da 94be a582 a8bf db69 003f
00000020: 0a0b 923e bb52 96be e6eb 59bf 73ad f4be
00000030: f01f 6f3f 4704 bdbf 8d05 41c0 6ae3 0ac0
00000040: add5 ecbf 641a 743f b1db 8140 3e72 0040
00000050: 763f 863f 33f4 9d3e e48c 91bf 74c7 a83b
00000060: e4eb a03f 8506 f6be 15df 3abf 5f66 f4be
00000070: d9e1 0a3f 7812 90be 02dd 9fbf d5b9 bcbe
00000080: 62a7 913f 1b16 9ebe bd26 b2bf a2b3 26bd
00000090: 432f fd3e 8b9d 7bbe 58f5 b6bf fee0 f7bd

fc1.bias f4 [10]
2.3937056 2.1851885 2.0222547 0.3970298 -0.74871737 2.0755663 2.1346703 2.3927925
1.8559903 1.6436415
00000000: 7932 1940 21da 0b40 9f6c 0140 7d47 cb3e
00000010: f1ab 3fbf 14d6 0440 709e 0840 8323 1940
00000020: 1791 ed3f d862 d23f

fc2.weight f4 [2, 10]
1.2608637 1.1992768 1.906397 -1.819419 -3.4542255 2.1274033 1.8490788 1.7266684
1.4681232 1.5664973 1.4827061 1.2485534 1.7694962 -2.3648384 -1.777455 1.953844
1.9782249 1.4958023 1.9633733 1.8309131
00000000: fb63 a13f e781 993f d104 f43f b9e2 e8bf
00000010: 0812 5dc0 6027 0840 9dae ec3f 7803 dd3f
00000020: 76eb bb3f fc82 c83f 50c9 bd3f 99d0 9f3f
00000030: da7e e23f 8359 17c0 a583 e3bf 8f17 fa3f
00000040: 7936 fd3f 7376 bf3f d14f fb3f 5c5b ea3f

fc2.bias f4 [2]
1.8331469 0.87852335
00000000: 8fa4 ea3f e8e6 603f
